…
u001b[1mTensorBoard: \u001b[0mStart with 'tensorboard --logdir runs/train', view at http://localhost:6006/\n","Downloading https://ultralytics.com/assets/Arial.ttf to /root/.config/Ultralytics/Arial.ttf...\n","100% 755k/755k [00:00<00:00, 14.5MB/s]\n","Downloading https://github.com/ultralytics/yolov5/releases/download/v6.1/yolov5x.pt to yolov5x.pt...\n","100% 166M/166M [00:12<00:00, 14.1MB/s]\n","\n","Overriding model.yaml nc=80 with nc=2\n","\n","                 from  n    params  module                                  arguments                     \n","  0                -1  1      8800  models.common.Conv                      [3, 80, 6, 2, 2]              \n","  1                -1  1    115520  models.common.Conv                      [80, 160, 3, 2]               \n","  2                -1  4    309120  models.common.C3                        [160, 160, 4]                 \n","  3                -1  1    461440  models.common.Conv                      [160, 320, 3, 2]              \n","  4                -1  8   2259200  models.common.C3                        [320, 320, 8]                 \n","  5                -1  1   1844480  models.common.Conv                      [320, 640, 3, 2]              \n","  6                -1 12  13125120  models.common.C3                        [640, 640, 12]                \n","  7                -1  1   7375360  models.common.Conv                      [640, 1280, 3, 2]             \n","  8                -1  4  19676160  models.common.C3                        [1280, 1280, 4]               \n","  9                -1  1   4099840  models.common.SPPF                      [1280, 1280, 5]               \n"," 10                -1  1    820480  models.common.Conv                      [1280, 640, 1, 1]             \n"," 11                -1  1         0  torch.nn.modules.upsampling.Upsample    [None, 2, 'nearest']          \n"," 12           [-1, 6]  1         0  models.common.Concat                    [1]                           \n"," 13                -1  4   5332480  models.common.C3                        [1280, 640, 4, False]         \n"," 14                -1  1    205440  models.common.Conv                      [640, 320, 1, 1]              \n"," 15                -1  1         0  torch.nn.modules.upsampling.Upsample    [None, 2, 'nearest']          \n"," 16           [-1, 4]  1         0  models.common.Concat                    [1]                           \n"," 17                -1  4   1335040  models.common.C3                        [640, 320, 4, False]          \n"," 18                -1  1    922240  models.common.Conv                      [320, 320, 3, 2]              \n"," 19          [-1, 14]  1         0  models.common.Concat                    [1]                           \n"," 20                -1  4   4922880  models.common.C3                        [640, 640, 4, False]          \n"," 21                -1  1   3687680  models.common.Conv                      [640, 640, 3, 2]              \n"," 22          [-1, 10]  1         0  models.common.Concat                    [1]                           \n"," 23                -1  4  19676160  models.common.C3                        [1280, 1280, 4, False]        \n"," 24      [17, 20, 23]  1     47103  models.yolo.Detect                      [2, [[10, 13, 16, 30, 33, 23], [30, 61, 62, 45, 59, 119], [116, 90, 156, 198, 373, 326]], [320, 640, 1280]]\n","Model summary: 567 layers, 86224543 parameters, 86224543 gradients, 204.2 GFLOPs\n","\n","Transferred 739/745 items from yolov5x.pt\n","\u001b[34m\u001b[1mAMP: \u001b[0mchecks pa
…
